…
last_activation: sigmoid
*** estimation begin time***: 01:48:44
Model: "model"
__________________________________________________________________________________________________
Layer (type)                    Output Shape         Param #     Connected to                     
==================================================================================================
input_1 (InputLayer)            [(None, 1000)]       0                                            
__________________________________________________________________________________________________
embedding (Embedding)           (None, 1000, 16)     416         input_1[0][0]                    
__________________________________________________________________________________________________
conv1d (Conv1D)                 (None, 1000, 48)     2352        embedding[0][0]                  
__________________________________________________________________________________________________
dropout (Dropout)               (None, 1000, 48)     0           conv1d[0][0]                     
__________________________________________________________________________________________________
max_pooling1d (MaxPooling1D)    (None, 500, 48)      0           dropout[0][0]                    
__________________________________________________________________________________________________
conv1d_1 (Conv1D)               (None, 500, 48)      6960        max_pooling1d[0][0]              
__________________________________________________________________________________________________
dropout_1 (Dropout)             (None, 500, 48)      0           conv1d_1[0][0]                   
__________________________________________________________________________________________________
max_pooling1d_1 (MaxPooling1D)  (None, 250, 48)      0           dropout_1[0][0]                  
__________________________________________________________________________________________________
conv1d_2 (Conv1D)               (None, 250, 48)      6960        max_pooling1d_1[0][0]            
__________________________________________________________________________________________________
dropout_2 (Dropout)             (None, 250, 48)      0           conv1d_2[0][0]                   
__________________________________________________________________________________________________
max_pooling1d_2 (MaxPooling1D)  (None, 125, 48)      0           dropout_2[0][0]                  
__________________________________________________________________________________________________
conv1d_3 (Conv1D)               (None, 125, 48)      6960        max_pooling1d_2[0][0]            
__________________________________________________________________________________________________
dropout_3 (Dropout)             (None, 125, 48)      0           conv1d_3[0][0]                   
__________________________________________________________________________________________________
max_pooling1d_3 (MaxPooling1D)  (None, 63, 48)       0           dropout_3[0][0]                  
__________________________________________________________________________________________________
conv1d_4 (Conv1D)               (None, 63, 48)       6960        max_pooling1d_3[0][0]            
__________________________________________________________________________________________________
dropout_4 (Dropout)             (None, 63, 48)       0           conv1d_4[0][0]                   
__________________________________________________________________________________________________
max_pooling1d_4 (MaxPooling1D)  (None, 32, 48)       0           dropout_4[0][0]                  
__________________________________________________________________________________________________
flatten (Flatten)               (None, 1536)         0           max_pooling1d_4[0][0]            
__________________________________________________________________________________________________
dropout_5 (Dropout)             (None, 1536)         0           flatten[0][0]                    
__________________________________________________________________________________________________
dense_1 (Dense)                 (None, 256)          393472      dropout_5[0][0]                  
__________________________________________________________________________________________________
dense_3 (Dense)                 (None, 256)          393472      dropout_5[0][0]                  
__________________________________________________________________________________________________
dense_5 (Dense)                 (None, 256)          393472      dropout_5[0][0]                  
__________________________________________________________________________________________________
dense_7 (Dense)                 (None, 256)          393472      dropout_5[0][0]                  
__________________________________________________________________________________________________
task_0_1 (Dense)                (None, 7)            1799        dense_1[0][0]                    
__________________________________________________________________________________________________
task_1_1 (Dense)                (None, 71)           18247       dense_3[0][0]                    
__________________________________________________________________________________________________
task_2_1 (Dense)                (None, 242)          62194       dense_5[0][0]                    
__________________________________________________________________________________________________
task_3_1 (Dense)                (None, 3649)         937793      dense_7[0][0]                    
==================================================================================================
Total params: 2,624,529
Trainable params: 2,624,529
Non-trainable params: 0
__________________________________________________________________________________________________
None
len(y_train) 4
batch_generator: default
Train on 57975 samples, validate on 11595 samples
…
